Model: "sequential"
_________________________________________________________________
Layer (type)                 Output Shape              Param #   
=================================================================
conv2d (Conv2D)              (None, 224, 224, 32)      896       
_________________________________________________________________
activation (Activation)      (None, 224, 224, 32)      0         
_________________________________________________________________
conv2d_1 (Conv2D)            (None, 74, 74, 32)        9248      
_________________________________________________________________
activation_1 (Activation)    (None, 74, 74, 32)        0         
_________________________________________________________________
max_pooling2d (MaxPooling2D) (None, 37, 37, 32)        0         
_________________________________________________________________
dropout (Dropout)            (None, 37, 37, 32)        0         
_________________________________________________________________
conv2d_2 (Conv2D)            (None, 37, 37, 64)        18496     
_________________________________________________________________
activation_2 (Activation)    (None, 37, 37, 64)        0         
_________________________________________________________________
conv2d_3 (Conv2D)            (None, 12, 12, 64)        36928     
_________________________________________________________________
activation_3 (Activation)    (None, 12, 12, 64)        0         
_________________________________________________________________
max_pooling2d_1 (MaxPooling2 (None, 6, 6, 64)          0         
_________________________________________________________________
dropout_1 (Dropout)          (None, 6, 6, 64)          0         
_________________________________________________________________
flatten (Flatten)            (None, 2304)              0         
_________________________________________________________________
dense (Dense)                (None, 512)               1180160   
_________________________________________________________________
activation_4 (Activation)    (None, 512)               0         
_________________________________________________________________
dropout_2 (Dropout)          (None, 512)               0         
_________________________________________________________________
dense_1 (Dense)              (None, 100)               51300     
_________________________________________________________________
activation_5 (Activation)    (None, 100)               0         
=================================================================
Total params: 1,297,028
Trainable params: 1,297,028
Non-trainable params: 0
_________________________________________________________________